…
==PAGE:108==
Philip Smith, s154668
February 16, 2021
Figure 11.4: Inputs for scene 4
Figure 11.5: Inputs for scene 5
Figure 11.6: Inputs for scene 6
98
==PAGE:109==
Philip Smith, s154668
February 16, 2021
11.2
Model structure and parameters from Keras
All layers and operations of all architectures in Keras
11.2.1
UNet 1
Model: "functional_1"
__________________________________________________________________________________________________
Layer (type)
Output Shape
Param #
Connected to
==================================================================================================
img (InputLayer)
[(None, 256, 256, 3) 0
__________________________________________________________________________________________________
conv2d (Conv2D)
(None, 256, 256, 24) 672
img[0][0]
__________________________________________________________________________________________________
batch_normalization (BatchNorma (None, 256, 256, 24) 96
conv2d[0][0]
__________________________________________________________________________________________________
activation (Activation)
(None, 256, 256, 24) 0
batch_normalization[0][0]
__________________________________________________________________________________________________
conv2d_1 (Conv2D)
(None, 256, 256, 24) 5208
activation[0][0]
__________________________________________________________________________________________________
batch_normalization_1 (BatchNor (None, 256, 256, 24) 96
conv2d_1[0][0]
__________________________________________________________________________________________________
activation_1 (Activation)
(None, 256, 256, 24) 0
batch_normalization_1[0][0]
__________________________________________________________________________________________________
max_pooling2d (MaxPooling2D)
(None, 128, 128, 24) 0
activation_1[0][0]
__________________________________________________________________________________________________
dropout (Dropout)
(None, 128, 128, 24) 0
max_pooling2d[0][0]
__________________________________________________________________________________________________
conv2d_2 (Conv2D)
(None, 128, 128, 48) 10416
dropout[0][0]
__________________________________________________________________________________________________
batch_normalization_2 (BatchNor (None, 128, 128, 48) 192
conv2d_2[0][0]
__________________________________________________________________________________________________
activation_2 (Activation)
(None, 128, 128, 48) 0
batch_normalization_2[0][0]
__________________________________________________________________________________________________
conv2d_3 (Conv2D)
(None, 128, 128, 48) 20784
activation_2[0][0]
__________________________________________________________________________________________________
batch_normalization_3 (BatchNor (None, 128, 128, 48) 192
conv2d_3[0][0]
__________________________________________________________________________________________________
activation_3 (Activation)
(None, 128, 128, 48) 0
batch_normalization_3[0][0]
__________________________________________________________________________________________________
max_pooling2d_1 (MaxPooling2D)
(None, 64, 64, 48)
0
activation_3[0][0]
__________________________________________________________________________________________________
dropout_1 (Dropout)
(None, 64, 64, 48)
0
max_pooling2d_1[0][0]
__________________________________________________________________________________________________
…
__________________________________________________________________________________________________
conv2d_13 (Conv2D)
(None, 64, 64, 96)
83040
activation_12[0][0]
__________________________________________________________________________________________________
batch_normalization_13 (BatchNo (None, 64, 64, 96)
384
conv2d_13[0][0]
100
==PAGE:111==
Philip Smith, s154668
February 16, 2021
__________________________________________________________________________________________________
activation_13 (Activation)
(None, 64, 64, 96)
0
batch_normalization_13[0][0]
__________________________________________________________________________________________________
conv2d_transpose_2 (Conv2DTrans (None, 128, 128, 48) 41520
activation_13[0][0]
__________________________________________________________________________________________________
concatenate_2 (Concatenate)
(None, 128, 128, 96) 0
conv2d_transpose_2[0][0]
activation_3[0][0]
__________________________________________________________________________________________________
dropout_6 (Dropout)
(None, 128, 128, 96) 0
concatenate_2[0][0]
__________________________________________________________________________________________________
conv2d_14 (Conv2D)
(None, 128, 128, 48) 41520
dropout_6[0][0]
__________________________________________________________________________________________________
batch_normalization_14 (BatchNo (None, 128, 128, 48) 192
conv2d_14[0][0]
__________________________________________________________________________________________________
activation_14 (Activation)
(None, 128, 128, 48) 0
batch_normalization_14[0][0]
__________________________________________________________________________________________________
conv2d_15 (Conv2D)
(None, 128, 128, 48) 20784
activation_14[0][0]
__________________________________________________________________________________________________
batch_normalization_15 (BatchNo (None, 128, 128, 48) 192
conv2d_15[0][0]
__________________________________________________________________________________________________
activation_15 (Activation)
(None, 128, 128, 48) 0
batch_normalization_15[0][0]
__________________________________________________________________________________________________
conv2d_transpose_3 (Conv2DTrans (None, 256, 256, 24) 10392
activation_15[0][0]
__________________________________________________________________________________________________
concatenate_3 (Concatenate)
(None, 256, 256, 48) 0
conv2d_transpose_3[0][0]
activation_1[0][0]
__________________________________________________________________________________________________
dropout_7 (Dropout)
(None, 256, 256, 48) 0
concatenate_3[0][0]
__________________________________________________________________________________________________
conv2d_16 (Conv2D)
(None, 256, 256, 24) 10392
dropout_7[0][0]
__________________________________________________________________________________________________
batch_normalization_16 (BatchNo (None, 256, 256, 24) 96
conv2d_16[0][0]
__________________________________________________________________________________________________
activation_16 (Activation)
(None, 256, 256, 24) 0
batch_normalization_16[0][0]
__________________________________________________________________________________________________
conv2d_17 (Conv2D)
(None, 256, 256, 24) 5208
activation_16[0][0]
__________________________________________________________________________________________________
batch_normalization_17 (BatchNo (None, 256, 256, 24) 96
conv2d_17[0][0]
__________________________________________________________________________________________________
activation_17 (Activation)
(None, 256, 256, 24) 0
batch_normalization_17[0][0]
__________________________________________________________________________________________________
conv2d_18 (Conv2D)
(None, 256, 256, 13) 325
activation_17[0][0]
==================================================================================================
Total params: 4,864,597
Trainable params: 4,860,181
Non-trainable params: 4,416
__________________________________________________________________________________________________
11.2.2
UNet 2
Model: "functional_1"
__________________________________________________________________________________________________
Layer (type)
Output Shape
Param #
Connected to
==================================================================================================
img (InputLayer)
[(None, 256, 256, 3) 0
__________________________________________________________________________________________________
conv2d (Conv2D)
(None, 256, 256, 32) 896
img[0][0]
__________________________________________________________________________________________________
batch_normalization (BatchNorma (None, 256, 256, 32) 128
conv2d[0][0]
__________________________________________________________________________________________________
activation (Activation)
(None, 256, 256, 32) 0
batch_normalization[0][0]
__________________________________________________________________________________________________
101
==PAGE:112==
Philip Smith, s154668
February 16, 2021
conv2d_1 (Conv2D)
(None, 256, 256, 32) 9248
activation[0][0]
__________________________________________________________________________________________________
batch_normalization_1 (BatchNor (None, 256, 256, 32) 128
conv2d_1[0][0]
__________________________________________________________________________________________________
activation_1 (Activation)
(None, 256, 256, 32) 0
batch_normalization_1[0][0]
__________________________________________________________________________________________________
max_pooling2d (MaxPooling2D)
(None, 128, 128, 32) 0
activation_1[0][0]
__________________________________________________________________________________________________
dropout (Dropout)
(None, 128, 128, 32) 0
max_pooling2d[0][0]
__________________________________________________________________________________________________
conv2d_2 (Conv2D)
(None, 128, 128, 64) 18496
dropout[0][0]
__________________________________________________________________________________________________
batch_normalization_2 (BatchNor (None, 128, 128, 64) 256
conv2d_2[0][0]
__________________________________________________________________________________________________
activation_2 (Activation)
(None, 128, 128, 64) 0
batch_normalization_2[0][0]
__________________________________________________________________________________________________
conv2d_3 (Conv2D)
(None, 128, 128, 64) 36928
activation_2[0][0]
__________________________________________________________________________________________________
batch_normalization_3 (BatchNor (None, 128, 128, 64) 256
conv2d_3[0][0]
__________________________________________________________________________________________________
activation_3 (Activation)
(None, 128, 128, 64) 0
batch_normalization_3[0][0]
__________________________________________________________________________________________________
max_pooling2d_1 (MaxPooling2D)
(None, 64, 64, 64)
0
activation_3[0][0]
__________________________________________________________________________________________________
dropout_1 (Dropout)
(None, 64, 64, 64)
0
max_pooling2d_1[0][0]
__________________________________________________________________________________________________
…
__________________________________________________________________________________________________
conv2d_17 (Conv2D)
(None, 64, 64, 128)
147584
activation_16[0][0]
__________________________________________________________________________________________________
batch_normalization_17 (BatchNo (None, 64, 64, 128)
512
conv2d_17[0][0]
__________________________________________________________________________________________________
activation_17 (Activation)
(None, 64, 64, 128)
0
batch_normalization_17[0][0]
__________________________________________________________________________________________________
conv2d_transpose_3 (Conv2DTrans (None, 128, 128, 64) 73792
activation_17[0][0]
__________________________________________________________________________________________________
concatenate_3 (Concatenate)
(None, 128, 128, 128 0
conv2d_transpose_3[0][0]
activation_3[0][0]
__________________________________________________________________________________________________
dropout_8 (Dropout)
(None, 128, 128, 128 0
concatenate_3[0][0]
__________________________________________________________________________________________________
conv2d_18 (Conv2D)
(None, 128, 128, 64) 73792
dropout_8[0][0]
__________________________________________________________________________________________________
batch_normalization_18 (BatchNo (None, 128, 128, 64) 256
conv2d_18[0][0]
__________________________________________________________________________________________________
activation_18 (Activation)
(None, 128, 128, 64) 0
batch_normalization_18[0][0]
__________________________________________________________________________________________________
conv2d_19 (Conv2D)
(None, 128, 128, 64) 36928
activation_18[0][0]
__________________________________________________________________________________________________
batch_normalization_19 (BatchNo (None, 128, 128, 64) 256
conv2d_19[0][0]
__________________________________________________________________________________________________
activation_19 (Activation)
(None, 128, 128, 64) 0
batch_normalization_19[0][0]
__________________________________________________________________________________________________
conv2d_transpose_4 (Conv2DTrans (None, 256, 256, 32) 18464
activation_19[0][0]
__________________________________________________________________________________________________
concatenate_4 (Concatenate)
(None, 256, 256, 64) 0
conv2d_transpose_4[0][0]
activation_1[0][0]
__________________________________________________________________________________________________
dropout_9 (Dropout)
(None, 256, 256, 64) 0
concatenate_4[0][0]
__________________________________________________________________________________________________
conv2d_20 (Conv2D)
(None, 256, 256, 32) 18464
dropout_9[0][0]
__________________________________________________________________________________________________
batch_normalization_20 (BatchNo (None, 256, 256, 32) 128
conv2d_20[0][0]
__________________________________________________________________________________________________
activation_20 (Activation)
(None, 256, 256, 32) 0
batch_normalization_20[0][0]
__________________________________________________________________________________________________
conv2d_21 (Conv2D)
(None, 256, 256, 32) 9248
activation_20[0][0]
__________________________________________________________________________________________________
batch_normalization_21 (BatchNo (None, 256, 256, 32) 128
conv2d_21[0][0]
__________________________________________________________________________________________________
activation_21 (Activation)
(None, 256, 256, 32) 0
batch_normalization_21[0][0]
__________________________________________________________________________________________________
name (Conv2D)
(None, 256, 256, 13) 429
activation_21[0][0]
==================================================================================================
Total params: 34,610,797
Trainable params: 34,598,765
Non-trainable params: 12,032
104
==PAGE:115==
Philip Smith, s154668
February 16, 2021
__________________________________________________________________________________________________
11.2.3
UNet 3
Model: "functional_1"
__________________________________________________________________________________________________
Layer (type)
Output Shape
Param #
Connected to
==================================================================================================
img (InputLayer)
[(None, 256, 256, 3) 0
__________________________________________________________________________________________________
conv2d (Conv2D)
(None, 256, 256, 32) 896
img[0][0]
__________________________________________________________________________________________________
batch_normalization (BatchNorma (None, 256, 256, 32) 128
conv2d[0][0]
__________________________________________________________________________________________________
activation (Activation)
(None, 256, 256, 32) 0
batch_normalization[0][0]
__________________________________________________________________________________________________
conv2d_1 (Conv2D)
(None, 256, 256, 32) 9248
activation[0][0]
__________________________________________________________________________________________________
batch_normalization_1 (BatchNor (None, 256, 256, 32) 128
conv2d_1[0][0]
__________________________________________________________________________________________________
activation_1 (Activation)
(None, 256, 256, 32) 0
batch_normalization_1[0][0]
__________________________________________________________________________________________________
max_pooling2d (MaxPooling2D)
(None, 128, 128, 32) 0
activation_1[0][0]
__________________________________________________________________________________________________
dropout (Dropout)
(None, 128, 128, 32) 0
max_pooling2d[0][0]
__________________________________________________________________________________________________
conv2d_2 (Conv2D)
(None, 128, 128, 64) 18496
dropout[0][0]
__________________________________________________________________________________________________
batch_normalization_2 (BatchNor (None, 128, 128, 64) 256
conv2d_2[0][0]
__________________________________________________________________________________________________
activation_2 (Activation)
(None, 128, 128, 64) 0
batch_normalization_2[0][0]
__________________________________________________________________________________________________
conv2d_3 (Conv2D)
(None, 128, 128, 64) 36928
activation_2[0][0]
__________________________________________________________________________________________________
batch_normalization_3 (BatchNor (None, 128, 128, 64) 256
conv2d_3[0][0]
__________________________________________________________________________________________________
activation_3 (Activation)
(None, 128, 128, 64) 0
batch_normalization_3[0][0]
__________________________________________________________________________________________________
max_pooling2d_1 (MaxPooling2D)
(None, 64, 64, 64)
0
activation_3[0][0]
__________________________________________________________________________________________________
dropout_1 (Dropout)
(None, 64, 64, 64)
0
max_pooling2d_1[0][0]
__________________________________________________________________________________________________
…
__________________________________________________________________________________________________
conv2d_21 (Conv2D)
(None, 64, 64, 128)
147584
activation_20[0][0]
__________________________________________________________________________________________________
batch_normalization_21 (BatchNo (None, 64, 64, 128)
512
conv2d_21[0][0]
__________________________________________________________________________________________________
activation_21 (Activation)
(None, 64, 64, 128)
0
batch_normalization_21[0][0]
__________________________________________________________________________________________________
conv2d_transpose_4 (Conv2DTrans (None, 128, 128, 64) 73792
activation_21[0][0]
__________________________________________________________________________________________________
concatenate_4 (Concatenate)
(None, 128, 128, 128 0
conv2d_transpose_4[0][0]
activation_3[0][0]
__________________________________________________________________________________________________
dropout_11 (Dropout)
(None, 128, 128, 128 0
concatenate_4[0][0]
__________________________________________________________________________________________________
conv2d_22 (Conv2D)
(None, 128, 128, 64) 73792
dropout_11[0][0]
__________________________________________________________________________________________________
batch_normalization_22 (BatchNo (None, 128, 128, 64) 256
conv2d_22[0][0]
__________________________________________________________________________________________________
activation_22 (Activation)
(None, 128, 128, 64) 0
batch_normalization_22[0][0]
__________________________________________________________________________________________________
conv2d_23 (Conv2D)
(None, 128, 128, 64) 36928
activation_22[0][0]
__________________________________________________________________________________________________
batch_normalization_23 (BatchNo (None, 128, 128, 64) 256
conv2d_23[0][0]
__________________________________________________________________________________________________
activation_23 (Activation)
(None, 128, 128, 64) 0
batch_normalization_23[0][0]
__________________________________________________________________________________________________
conv2d_transpose_5 (Conv2DTrans (None, 256, 256, 32) 18464
activation_23[0][0]
__________________________________________________________________________________________________
concatenate_5 (Concatenate)
(None, 256, 256, 64) 0
conv2d_transpose_5[0][0]
activation_1[0][0]
__________________________________________________________________________________________________
dropout_12 (Dropout)
(None, 256, 256, 64) 0
concatenate_5[0][0]
__________________________________________________________________________________________________
conv2d_24 (Conv2D)
(None, 256, 256, 32) 18464
dropout_12[0][0]
__________________________________________________________________________________________________
batch_normalization_24 (BatchNo (None, 256, 256, 32) 128
conv2d_24[0][0]
__________________________________________________________________________________________________
activation_24 (Activation)
(None, 256, 256, 32) 0
batch_normalization_24[0][0]
__________________________________________________________________________________________________
conv2d_25 (Conv2D)
(None, 256, 256, 32) 9248
activation_24[0][0]
__________________________________________________________________________________________________
batch_normalization_25 (BatchNo (None, 256, 256, 32) 128
conv2d_25[0][0]
__________________________________________________________________________________________________
activation_25 (Activation)
(None, 256, 256, 32) 0
batch_normalization_25[0][0]
__________________________________________________________________________________________________
Final_layer (Conv2D)
(None, 256, 256, 13) 429
activation_25[0][0]
==================================================================================================
Total params: 138,451,565
Trainable params: 138,427,245
Non-trainable params: 24,320
__________________________________________________________________________________________________
11.2.4
ResUNet
footnotesize
Model: "functional_3"
__________________________________________________________________________________________________
Layer (type)
Output Shape
Param #
Connected to
==================================================================================================
108
==PAGE:119==
Philip Smith, s154668
February 16, 2021
img (InputLayer)
[(None, 256, 256, 3) 0
__________________________________________________________________________________________________
conv2d_29 (Conv2D)
(None, 256, 256, 16) 448
img[0][0]
__________________________________________________________________________________________________
batch_normalization_28 (BatchNo (None, 256, 256, 16) 64
conv2d_29[0][0]
__________________________________________________________________________________________________
activation_19 (Activation)
(None, 256, 256, 16) 0
batch_normalization_28[0][0]
__________________________________________________________________________________________________
conv2d_31 (Conv2D)
(None, 256, 256, 16) 64
img[0][0]
__________________________________________________________________________________________________
conv2d_30 (Conv2D)
(None, 256, 256, 16) 2320
activation_19[0][0]
__________________________________________________________________________________________________
batch_normalization_29 (BatchNo (None, 256, 256, 16) 64
conv2d_31[0][0]
__________________________________________________________________________________________________
add_9 (Add)
(None, 256, 256, 16) 0
conv2d_30[0][0]
batch_normalization_29[0][0]
__________________________________________________________________________________________________
batch_normalization_30 (BatchNo (None, 256, 256, 16) 64
add_9[0][0]
__________________________________________________________________________________________________
activation_20 (Activation)
(None, 256, 256, 16) 0
batch_normalization_30[0][0]
__________________________________________________________________________________________________
conv2d_32 (Conv2D)
(None, 128, 128, 32) 4640
activation_20[0][0]
__________________________________________________________________________________________________
batch_normalization_31 (BatchNo (None, 128, 128, 32) 128
conv2d_32[0][0]
__________________________________________________________________________________________________
conv2d_34 (Conv2D)
(None, 128, 128, 32) 544
add_9[0][0]
__________________________________________________________________________________________________
activation_21 (Activation)
(None, 128, 128, 32) 0
batch_normalization_31[0][0]
__________________________________________________________________________________________________
batch_normalization_32 (BatchNo (None, 128, 128, 32) 128
conv2d_34[0][0]
__________________________________________________________________________________________________
conv2d_33 (Conv2D)
(None, 128, 128, 32) 9248
activation_21[0][0]
__________________________________________________________________________________________________
add_10 (Add)
(None, 128, 128, 32) 0
batch_normalization_32[0][0]
conv2d_33[0][0]
__________________________________________________________________________________________________
batch_normalization_33 (BatchNo (None, 128, 128, 32) 128
add_10[0][0]
__________________________________________________________________________________________________
activation_22 (Activation)
(None, 128, 128, 32) 0
batch_normalization_33[0][0]
__________________________________________________________________________________________________
conv2d_35 (Conv2D)
(None, 64, 64, 64)
18496
activation_22[0][0]
__________________________________________________________________________________________________
batch_normalization_34 (BatchNo (None, 64, 64, 64)
256
conv2d_35[0][0]
__________________________________________________________________________________________________
…
__________________________________________________________________________________________________
concatenate_6 (Concatenate)
(None, 128, 128, 160 0
up_sampling2d_6[0][0]
add_10[0][0]
__________________________________________________________________________________________________
batch_normalization_50 (BatchNo (None, 128, 128, 160 640
concatenate_6[0][0]
__________________________________________________________________________________________________
activation_34 (Activation)
(None, 128, 128, 160 0
batch_normalization_50[0][0]
__________________________________________________________________________________________________
conv2d_52 (Conv2D)
(None, 128, 128, 64) 92224
activation_34[0][0]
__________________________________________________________________________________________________
batch_normalization_51 (BatchNo (None, 128, 128, 64) 256
conv2d_52[0][0]
__________________________________________________________________________________________________
conv2d_54 (Conv2D)
(None, 128, 128, 64) 10304
concatenate_6[0][0]
__________________________________________________________________________________________________
activation_35 (Activation)
(None, 128, 128, 64) 0
batch_normalization_51[0][0]
__________________________________________________________________________________________________
batch_normalization_52 (BatchNo (None, 128, 128, 64) 256
conv2d_54[0][0]
__________________________________________________________________________________________________
conv2d_53 (Conv2D)
(None, 128, 128, 64) 36928
activation_35[0][0]
__________________________________________________________________________________________________
add_16 (Add)
(None, 128, 128, 64) 0
batch_normalization_52[0][0]
conv2d_53[0][0]
__________________________________________________________________________________________________
up_sampling2d_7 (UpSampling2D)
(None, 256, 256, 64) 0
add_16[0][0]
__________________________________________________________________________________________________
concatenate_7 (Concatenate)
(None, 256, 256, 80) 0
up_sampling2d_7[0][0]
add_9[0][0]
__________________________________________________________________________________________________
batch_normalization_53 (BatchNo (None, 256, 256, 80) 320
concatenate_7[0][0]
__________________________________________________________________________________________________
activation_36 (Activation)
(None, 256, 256, 80) 0
batch_normalization_53[0][0]
__________________________________________________________________________________________________
111
==PAGE:122==
Philip Smith, s154668
February 16, 2021
conv2d_55 (Conv2D)
(None, 256, 256, 32) 23072
activation_36[0][0]
__________________________________________________________________________________________________
batch_normalization_54 (BatchNo (None, 256, 256, 32) 128
conv2d_55[0][0]
__________________________________________________________________________________________________
conv2d_57 (Conv2D)
(None, 256, 256, 32) 2592
concatenate_7[0][0]
__________________________________________________________________________________________________
activation_37 (Activation)
(None, 256, 256, 32) 0
batch_normalization_54[0][0]
__________________________________________________________________________________________________
batch_normalization_55 (BatchNo (None, 256, 256, 32) 128
conv2d_57[0][0]
__________________________________________________________________________________________________
conv2d_56 (Conv2D)
(None, 256, 256, 32) 9248
activation_37[0][0]
__________________________________________________________________________________________________
add_17 (Add)
(None, 256, 256, 32) 0
batch_normalization_55[0][0]
conv2d_56[0][0]
__________________________________________________________________________________________________
name (Conv2D)
(None, 256, 256, 13) 429
add_17[0][0]
==================================================================================================
Total params: 4,723,453
Trainable params: 4,716,157
Non-trainable params: 7,296
__________________________________________________________________________________________________
11.2.5
ResUNet++
Model: "functional_3"
__________________________________________________________________________________________________
Layer (type)
Output Shape
Param #
Connected to
==================================================================================================
input_2 (InputLayer)
[(None, 256, 256, 3) 0
__________________________________________________________________________________________________
conv2d_40 (Conv2D)
(None, 256, 256, 32) 896
input_2[0][0]
__________________________________________________________________________________________________
batch_normalization_37 (BatchNo (None, 256, 256, 32) 128
conv2d_40[0][0]
__________________________________________________________________________________________________
activation_22 (Activation)
(None, 256, 256, 32) 0
batch_normalization_37[0][0]
__________________________________________________________________________________________________
conv2d_42 (Conv2D)
(None, 256, 256, 32) 128
input_2[0][0]
__________________________________________________________________________________________________
conv2d_41 (Conv2D)
(None, 256, 256, 32) 9248
activation_22[0][0]
__________________________________________________________________________________________________
batch_normalization_38 (BatchNo (None, 256, 256, 32) 128
conv2d_42[0][0]
__________________________________________________________________________________________________
add_12 (Add)
(None, 256, 256, 32) 0
conv2d_41[0][0]
batch_normalization_38[0][0]
__________________________________________________________________________________________________
global_average_pooling2d_7 (Glo (None, 32)
0
add_12[0][0]
__________________________________________________________________________________________________
reshape_7 (Reshape)
(None, 1, 1, 32)
0
global_average_pooling2d_7[0][0]
__________________________________________________________________________________________________
dense_14 (Dense)
(None, 1, 1, 4)
128
reshape_7[0][0]
__________________________________________________________________________________________________
dense_15 (Dense)
(None, 1, 1, 32)
128
dense_14[0][0]
__________________________________________________________________________________________________
multiply_10 (Multiply)
(None, 256, 256, 32) 0
add_12[0][0]
dense_15[0][0]
__________________________________________________________________________________________________
batch_normalization_39 (BatchNo (None, 256, 256, 32) 128
multiply_10[0][0]
__________________________________________________________________________________________________
activation_23 (Activation)
(None, 256, 256, 32) 0
batch_normalization_39[0][0]
__________________________________________________________________________________________________
conv2d_43 (Conv2D)
(None, 128, 128, 64) 18496
activation_23[0][0]
__________________________________________________________________________________________________
112
==PAGE:123==
Philip Smith, s154668
February 16, 2021
batch_normalization_40 (BatchNo (None, 128, 128, 64) 256
conv2d_43[0][0]
__________________________________________________________________________________________________
activation_24 (Activation)
(None, 128, 128, 64) 0
batch_normalization_40[0][0]
__________________________________________________________________________________________________
conv2d_45 (Conv2D)
(None, 128, 128, 64) 2112
multiply_10[0][0]
__________________________________________________________________________________________________
conv2d_44 (Conv2D)
(None, 128, 128, 64) 36928
activation_24[0][0]
__________________________________________________________________________________________________
batch_normalization_41 (BatchNo (None, 128, 128, 64) 256
conv2d_45[0][0]
__________________________________________________________________________________________________
add_13 (Add)
(None, 128, 128, 64) 0
conv2d_44[0][0]
batch_normalization_41[0][0]
__________________________________________________________________________________________________
global_average_pooling2d_8 (Glo (None, 64)
0
add_13[0][0]
__________________________________________________________________________________________________
reshape_8 (Reshape)
(None, 1, 1, 64)
0
global_average_pooling2d_8[0][0]
__________________________________________________________________________________________________
dense_16 (Dense)
(None, 1, 1, 8)
512
reshape_8[0][0]
__________________________________________________________________________________________________
dense_17 (Dense)
(None, 1, 1, 64)
512
dense_16[0][0]
__________________________________________________________________________________________________
multiply_11 (Multiply)
(None, 128, 128, 64) 0
add_13[0][0]
dense_17[0][0]
__________________________________________________________________________________________________
batch_normalization_42 (BatchNo (None, 128, 128, 64) 256
multiply_11[0][0]
__________________________________________________________________________________________________
activation_25 (Activation)
(None, 128, 128, 64) 0
batch_normalization_42[0][0]
__________________________________________________________________________________________________
conv2d_46 (Conv2D)
(None, 64, 64, 128)
73856
activation_25[0][0]
__________________________________________________________________________________________________
batch_normalization_43 (BatchNo (None, 64, 64, 128)
512
conv2d_46[0][0]
__________________________________________________________________________________________________
…
__________________________________________________________________________________________________
concatenate_5 (Concatenate)
(None, 256, 256, 160 0
up_sampling2d_5[0][0]
multiply_10[0][0]
__________________________________________________________________________________________________
batch_normalization_67 (BatchNo (None, 256, 256, 160 640
concatenate_5[0][0]
__________________________________________________________________________________________________
activation_42 (Activation)
(None, 256, 256, 160 0
batch_normalization_67[0][0]
__________________________________________________________________________________________________
conv2d_72 (Conv2D)
(None, 256, 256, 64) 92224
activation_42[0][0]
__________________________________________________________________________________________________
batch_normalization_68 (BatchNo (None, 256, 256, 64) 256
conv2d_72[0][0]
__________________________________________________________________________________________________
activation_43 (Activation)
(None, 256, 256, 64) 0
batch_normalization_68[0][0]
__________________________________________________________________________________________________
conv2d_74 (Conv2D)
(None, 256, 256, 64) 10304
concatenate_5[0][0]
__________________________________________________________________________________________________
conv2d_73 (Conv2D)
(None, 256, 256, 64) 36928
activation_43[0][0]
__________________________________________________________________________________________________
batch_normalization_69 (BatchNo (None, 256, 256, 64) 256
conv2d_74[0][0]
__________________________________________________________________________________________________
add_22 (Add)
(None, 256, 256, 64) 0
conv2d_73[0][0]
batch_normalization_69[0][0]
__________________________________________________________________________________________________
global_average_pooling2d_13 (Gl (None, 64)
0
add_22[0][0]
__________________________________________________________________________________________________
reshape_13 (Reshape)
(None, 1, 1, 64)
0
global_average_pooling2d_13[0][0]
__________________________________________________________________________________________________
dense_26 (Dense)
(None, 1, 1, 8)
512
reshape_13[0][0]
__________________________________________________________________________________________________
dense_27 (Dense)
(None, 1, 1, 64)
512
dense_26[0][0]
__________________________________________________________________________________________________
multiply_19 (Multiply)
(None, 256, 256, 64) 0
add_22[0][0]
dense_27[0][0]
__________________________________________________________________________________________________
conv2d_75 (Conv2D)
(None, 256, 256, 32) 18464
multiply_19[0][0]
__________________________________________________________________________________________________
conv2d_76 (Conv2D)
(None, 256, 256, 32) 18464
multiply_19[0][0]
__________________________________________________________________________________________________
conv2d_77 (Conv2D)
(None, 256, 256, 32) 18464
multiply_19[0][0]
__________________________________________________________________________________________________
conv2d_78 (Conv2D)
(None, 256, 256, 32) 18464
multiply_19[0][0]
__________________________________________________________________________________________________
batch_normalization_70 (BatchNo (None, 256, 256, 32) 128
conv2d_75[0][0]
__________________________________________________________________________________________________
batch_normalization_71 (BatchNo (None, 256, 256, 32) 128
conv2d_76[0][0]
__________________________________________________________________________________________________
batch_normalization_72 (BatchNo (None, 256, 256, 32) 128
conv2d_77[0][0]
__________________________________________________________________________________________________
batch_normalization_73 (BatchNo (None, 256, 256, 32) 128
conv2d_78[0][0]
__________________________________________________________________________________________________
add_23 (Add)
(None, 256, 256, 32) 0
batch_normalization_70[0][0]
batch_normalization_71[0][0]
batch_normalization_72[0][0]
batch_normalization_73[0][0]
117
==PAGE:128==
Philip Smith, s154668
February 16, 2021
__________________________________________________________________________________________________
conv2d_79 (Conv2D)
(None, 256, 256, 32) 1056
add_23[0][0]
__________________________________________________________________________________________________
ResOutput (Conv2D)
(None, 256, 256, 13) 429
conv2d_79[0][0]
==================================================================================================
Total params: 16,243,181
Trainable params: 16,228,397
Non-trainable params: 14,784
__________________________________________________________________________________________________
118
